…
3893936/3893936 [==============================] - 6s 1us/step - loss: 0.2415 - accuracy: 0.9237 - val_loss: 0.2418 - val_accuracy: 0.9235
Epoch 19/20
3893936/3893936 [==============================] - 5s 1us/step - loss: 0.2409 - accuracy: 0.9237 - val_loss: 0.2415 - val_accuracy: 0.9235
Epoch 20/20
3893936/3893936 [==============================] - 6s 1us/step - loss: 0.2403 - accuracy: 0.9237 - val_loss: 0.2407 - val_accuracy: 0.9235

DEEP MLP MODEL 2

Model: "sequential_5"
_________________________________________________________________
Layer (type)                 Output Shape              Param #   
=================================================================
dense_8 (Dense)              (None, 551)               17632     
_________________________________________________________________
batch_normalization_2 (Batch (None, 551)               2204      
_________________________________________________________________
dropout_1 (Dropout)          (None, 551)               0         
_________________________________________________________________
dense_9 (Dense)              (None, 447)               246744    
_________________________________________________________________
batch_normalization_3 (Batch (None, 447)               1788      
_________________________________________________________________
dropout_2 (Dropout)          (None, 447)               0         
_________________________________________________________________
dense_10 (Dense)             (None, 331)               148288    
_________________________________________________________________
batch_normalization_4 (Batch (None, 331)               1324      
_________________________________________________________________
dropout_3 (Dropout)          (None, 331)               0         
_________________________________________________________________
dense_11 (Dense)             (None, 236)               78352     
_________________________________________________________________
batch_normalization_5 (Batch (None, 236)               944       
_________________________________________________________________
dropout_4 (Dropout)          (None, 236)               0         
_________________________________________________________________
dense_12 (Dense)             (None, 121)               28677     
_________________________________________________________________
batch_normalization_6 (Batch (None, 121)               484       
_________________________________________________________________
dropout_5 (Dropout)          (None, 121)               0         
_________________________________________________________________
dense_13 (Dense)             (None, 4)                 488       
=================================================================
Total params: 526,925
Trainable params: 523,553
Non-trainable params: 3,372

Train on 3893936 samples, validate on 973485 samples
Epoch 1/20
3893936/3893936 [==============================] - 275s 71us/step - loss: 0.5036 - accuracy: 0.8441 - val_loss: 1.9103 - val_accuracy: 0.5852
Epoch 2/20
3893936/3893936 [==============================] - 273s 70us/step - loss: 0.2837 - accuracy: 0.9164 - val_loss: 2.6898 - val_accuracy: 0.5852
…
3893936/3893936 [==============================] - 285s 73us/step - loss: 0.1943 - accuracy: 0.9289 - val_loss: 0.3140 - val_accuracy: 0.9235
Epoch 19/20
3893936/3893936 [==============================] - 281s 72us/step - loss: 0.1879 - accuracy: 0.9322 - val_loss: 0.7139 - val_accuracy: 0.7820
Epoch 20/20
3893936/3893936 [==============================] - 281s 72us/step - loss: 0.1842 - accuracy: 0.9340 - val_loss: 1.7042 - val_accuracy: 0.7048

DEEP MLP MODEL 3

Model: "sequential_6"
_________________________________________________________________
Layer (type)                 Output Shape              Param #   
=================================================================
dense_14 (Dense)             (None, 551)               17632     
_________________________________________________________________
dense_15 (Dense)             (None, 447)               246744    
_________________________________________________________________
dense_16 (Dense)             (None, 331)               148288    
_________________________________________________________________
dense_17 (Dense)             (None, 236)               78352     
_________________________________________________________________
dense_18 (Dense)             (None, 121)               28677     
_________________________________________________________________
dense_19 (Dense)             (None, 4)                 488       
=================================================================
Total params: 520,181
Trainable params: 520,181
Non-trainable params: 0
_________________________________________________________________
None
Train on 3893936 samples, validate on 973485 samples
Epoch 1/20
3893936/3893936 [==============================] - 49s 13us/step - loss: 0.4223 - accuracy: 0.8903 - val_loss: 0.2388 - val_accuracy: 0.9235
…
3893936/3893936 [==============================] - 53s 14us/step - loss: 0.1505 - accuracy: 0.9427 - val_loss: 0.1774 - val_accuracy: 0.9298
Epoch 19/20
3893936/3893936 [==============================] - 53s 14us/step - loss: 0.1550 - accuracy: 0.9398 - val_loss: 0.2138 - val_accuracy: 0.9221
Epoch 20/20
3893936/3893936 [==============================] - 53s 14us/step - loss: 0.1516 - accuracy: 0.9427 - val_loss: 0.1505 - val_accuracy: 0.9408

DEEP MLP MODEL 4

Model: "sequential_7"
_________________________________________________________________
Layer (type)                 Output Shape              Param #   
=================================================================
dense_20 (Dense)             (None, 438)               14016     
_________________________________________________________________
batch_normalization_7 (Batch (None, 438)               1752      
_________________________________________________________________
dropout_6 (Dropout)          (None, 438)               0         
_________________________________________________________________
dense_21 (Dense)             (None, 276)               121164    
_________________________________________________________________
batch_normalization_8 (Batch (None, 276)               1104      
_________________________________________________________________
dropout_7 (Dropout)          (None, 276)               0         
_________________________________________________________________
dense_22 (Dense)             (None, 157)               43489     
_________________________________________________________________
batch_normalization_9 (Batch (None, 157)               628       
_________________________________________________________________
dropout_8 (Dropout)          (None, 157)               0         
_________________________________________________________________
dense_23 (Dense)             (None, 4)                 632       
=================================================================
Total params: 182,785
Trainable params: 181,043
Non-trainable params: 1,742
_________________________________________________________________
Train on 3893936 samples, validate on 973485 samples
Epoch 1/20
3893936/3893936 [==============================] - 140s 36us/step - loss: 0.5485 - accuracy: 0.8234 - val_loss: 1.8676 - val_accuracy: 0.5852
…
3893936/3893936 [==============================] - 139s 36us/step - loss: 0.2340 - accuracy: 0.9237 - val_loss: 0.2408 - val_accuracy: 0.9239
Epoch 19/20
3893936/3893936 [==============================] - 139s 36us/step - loss: 0.2320 - accuracy: 0.9237 - val_loss: 0.2360 - val_accuracy: 0.9236
Epoch 20/20
3893936/3893936 [==============================] - 141s 36us/step - loss: 0.2294 - accuracy: 0.9239 - val_loss: 0.2389 - val_accuracy: 0.9235

DEEP MP MODEL 5

Model: "sequential_8"
_________________________________________________________________
Layer (type)                 Output Shape              Param #   
=================================================================
dense_24 (Dense)             (None, 612)               19584     
_________________________________________________________________
batch_normalization_10 (Batc (None, 612)               2448      
_________________________________________________________________
dropout_9 (Dropout)          (None, 612)               0         
_________________________________________________________________
dense_25 (Dense)             (None, 324)               198612    
_________________________________________________________________
batch_normalization_11 (Batc (None, 324)               1296      
_________________________________________________________________
dropout_10 (Dropout)         (None, 324)               0         
_________________________________________________________________
dense_26 (Dense)             (None, 4)                 1300      
=================================================================
Total params: 223,240
Trainable params: 221,368
Non-trainable params: 1,872
_________________________________________________________________
Train on 3893936 samples, validate on 973485 samples
Epoch 1/20
3893936/3893936 [==============================] - 155s 40us/step - loss: 0.6970 - accuracy: 0.7719 - val_loss: 1.2457 - val_accuracy: 0.5852
…
